results/FCNet/MNIST/baseline_model.pth (torch, 816264 bytes, 4 tensors)

fc1.weight f4 [256, 784]
0	0x3ca6df12	0.02037004
1	0x3d230154	0.03979619
2	0xbc0f797f	-0.008756994
3	0xbbb90266	-0.005646038
4	0x3be1812f	0.006881855
5	0x3cf78445	0.030214438
6	0x3ca343d2	0.0199298
7	0x3d4884fa	0.04895494
8	0x3c8f190d	0.017468
9	0x3cf67ac3	0.030087834
10	0x3c2148fd	0.009844062
11	0x3c5f1acb	0.013617228
12	0xbc5ba2f6	-0.013405552
13	0xbb39e7bb	-0.0028366882
14	0x3bc23a7e	0.005927383
15	0x3cb3e75b	0.021960905
16	0x3d0e5cd6	0.034756504
17	0x3d2c4e40	0.042066813
18	0xbb6a4668	-0.0035747532
19	0x3ba6a118	0.005085122
20	0x3d09aa10	0.03360945
21	0x3d4e0148	0.05029419
22	0x3c59b36b	0.0132874055
23	0x3d41ff9e	0.047362916
24	0x3c73cee7	0.014880872
25	0x3cc804fe	0.024416443
26	0x3d58fd3a	0.05297587
27	0xbc4cb22f	-0.012493654
28	0xbaf1f7eb	-0.0018460726
29	0x3c3dfc3b	0.011595781
30	0x3bdc115b	0.006715936
31	0x3d52ec08	0.05149463
32	0xbb249dda	-0.00251185
33	0x3b8a049a	0.0042119743
34	0xbb12da13	-0.0022407814
35	0xbc1710ca	-0.009220311
36	0x3b980fa7	0.004640538
37	0x3d5623dd	0.052280296
38	0x3d146279	0.036226723
39	0x3d1bbe5a	0.03802333
40	0x3cb677e0	0.022273958
41	0x3b14fc86	0.0022733524
42	0x3cc27068	0.02373524
43	0xbc72d292	-0.014820712
44	0xbae88084	-0.0017738496
45	0x3b64ee4b	0.0034932073
46	0x3d31d856	0.043419205
47	0x3d2f83a3	0.042850148
48	0x3b9abc39	0.004722145
49	0x3c9bf219	0.01903634
50	0x3d31eb9b	0.04343758
51	0x3d664038	0.056213588
52	0x3d0e96c7	0.03481176
53	0x3cd095ed	0.025462115
54	0x3d369d0e	0.044583373
55	0xb9cd1e2e	-0.00039123133
56	0x3cdf94a3	0.027292555
57	0xbbe7144a	-0.007051979
58	0xbb86dc6c	-0.004115632
59	0x3b0f6466	0.002187991
60	0x3d16b56a	0.036794104
61	0x3d0f9b57	0.035060253
62	0x3a6a0f33	0.00089286565
63	0x3d16e63b	0.03684066
64	0x3d479f75	0.048736054
65	0x3cab7d40	0.020933747
66	0x3ce7f71d	0.028316075
67	0x3d105c28	0.035244137
68	0x3d1eb4b7	0.03874656
69	0x3c803dac	0.015654407
70	0xbc9a000d	-0.018798852
71	0xbbf92db6	-0.007604326
72	0x3c792a2f	0.015207811
73	0x3d0c9eb6	0.034331046
74	0x3d0e6541	0.034764532
75	0x3d32d891	0.043663565
76	0x3cc9d58f	0.024637965
77	0xbc4f1542	-0.012639346
78	0x3cb7dc70	0.02244398
79	0xbaf32ecb	-0.0018553374
80	0xbc4b16b3	-0.012395549
81	0x3d572a29	0.05253044
82	0x3d43c2cc	0.047793195
83	0xbc75929e	-0.01498857
84	0x3cdfd2a8	0.027322128
85	0x3c6f8ce4	0.014620993
86	0x3c71a4c4	0.014748756
87	0x3b8cc000	0.004295349
88	0x3d0c5c50	0.034267724
89	0x39f98f3a	0.00047599693
90	0x3d2ddc9e	0.042446725
91	0x3d46f1b8	0.048570365
92	0x3d626ba4	0.055278435
93	0x3c98955c	0.018625908
94	0xbd33838a	-0.043826617
95	0xbcee6966	-0.029102992
96	0x3bdcf760	0.0067433566
97	0xbca3582e	-0.019939508
98	0xbd29d83b	-0.04146598
99	0xbcf42948	-0.02980484
100	0xb96db606	-0.0002266989
101	0xbc954009	-0.01821901
102	0xbcf82ea6	-0.030295681
103	0xbc956859	-0.018238233
104	0xbd18e5ab	-0.037328403
105	0x3b784f34	0.0037889006
106	0xbc62bf17	-0.013839505
107	0xbc302f87	-0.010753519
108	0x3c8de846	0.01732267
109	0x3cd61b96	0.0261362
110	0x3bc4fa19	0.0060112593
111	0x3d2b5566	0.04182949
112	0xba8fab8f	-0.0010961163
113	0x3d59442a	0.053043522
114	0x3d389e70	0.045072973
115	0xbc18fab9	-0.009337121
116	0x3be6b3d9	0.0070404825
117	0x3c4e3f4d	0.012588334
118	0x3cf4de8d	0.029891277
119	0x3cf5a5cc	0.029986285
120	0x3c940d89	0.01807286
121	0xbcf4f512	-0.029902015
122	0xbd1cd14a	-0.03828553
123	0xbc9f120e	-0.019417789
124	0xbdfb2191	-0.12262262
125	0xbe316242	-0.17322639
126	0xbe1feb78	-0.15617168
127	0xbe231e3b	-0.15929501
128	0xbdcce712	-0.10005011
129	0xbd8ccf71	-0.06875504
130	0xbdb813a9	-0.08988125
131	0xbd7a0c3f	-0.061046835
132	0xbd41497d	-0.047189225
133	0xbca80d3a	-0.02051412
134	0x3c50e067	0.012748814
135	0xbb06ae10	-0.0020550527
136	0x3c80219f	0.015641032
137	0x3c9649c5	0.018345723
138	0x3ce4173b	0.027843108
139	0x3d318b90	0.043345988
140	0x3d5f1982	0.054467686
141	0x3d316e39	0.043318007
142	0x3d5f49de	0.054513805
143	0x3ca5b6d1	0.020228775
144	0xbb9014bd	-0.0043970034
145	0x3bff7daf	0.007796965
146	0x3d3ea056	0.046539627
147	0x3c242281	0.010017992
148	0xbd7dd040	-0.06196618
149	0xbdbe8283	-0.09302237
150	0xbe2bf287	-0.16791736
151	0xbe6e8a50	-0.2329495
152	0xbe7504f7	-0.23927675
153	0xbe4457a1	-0.19174053
154	0xbe63e134	-0.22253877
155	0xbde9ca80	-0.11415577
156	0x3d8af355	0.06784693
157	0xbc356342	-0.011071028
158	0xbd712a4b	-0.058878224
159	0xbce02641	-0.02736199
160	0xbd54b29c	-0.051928148
161	0xbd8a2b5a	-0.0674655
162	0xbda4eaf8	-0.08052629
163	0xbd8a1ca6	-0.067437455
164	0xbc5cbba9	-0.013472476
165	0x3c7fe04a	0.0156174395
166	0x3b857187	0.0040723714
167	0x3d0b92af	0.034075435
168	0xbc3c89e3	-0.011507484
169	0x3c959dc7	0.01826371
170	0x3d5b27ac	0.05350463
171	0x3d05829c	0.032595262
172	0x3dbe6182	0.09295942
173	0x3d0ea18e	0.03482204
174	0xbcbe088d	-0.023197437
175	0x3c9239bc	0.017849796
176	0xbc5a8a85	-0.01333869
177	0x3d801e95	0.06255833
178	0x3cf8b504	0.030359752
179	0xbe210200	-0.15723419
180	0xbe5dae16	-0.2164844
181	0xbe7bca60	-0.24588919
182	0xbe1bd263	-0.15216975
183	0xbcbdce74	-0.023169734
184	0x3d963f4d	0.073362924
185	0x3de939a5	0.11387948
186	0x3b92d884	0.004481377
187	0xbd5b42c7	-0.05353048
188	0xbdfc7dac	-0.123286575
189	0xbd85e041	-0.06536914
190	0xbd81264f	-0.06306135
191	0xbdb0f770	-0.08640945
192	0xbdbc8a06	-0.092060134
193	0xbaa4b28b	-0.0012565417
194	0xbc1232cf	-0.0089232465
195	0x3a13c1d5	0.0005636488
196	0xb934400d	-0.00017189998
197	0x3d0a2192	0.03372342
198	0x3b9c5eb3	0.004772031
199	0x3d8f4052	0.0699469
200	0x3dc6328f	0.09677612
201	0x3d9ab328	0.075537026
202	0x3db579b6	0.08861105
203	0x3d913621	0.070904024
204	0x3dbed730	0.093183875
205	0x3e1c1dd7	0.15245758
206	0x3d68c943	0.056832563
207	0xbd178ee4	-0.037001505
208	0xbd3e8107	-0.04650977
209	0xbc039fad	-0.008033675
210	0xbbbfb261	-0.005850122
211	0xbe41c8fb	-0.18924324
212	0xbe769444	-0.24079996
213	0xbdeee67e	-0.11665057
214	0xbdb620e2	-0.08892991
215	0xbe039721	-0.1285062
216	0xbdbadfc6	-0.09124713
217	0xbdf3dc83	-0.11907294
218	0xbdfab341	-0.12241221
219	0xbe357775	-0.1772135
220	0xbd76bc8d	-0.06023841
221	0x3c800d48	0.015631333
222	0x3cbb8bb0	0.022893757
223	0x3caec1f7	0.021332724
224	0xbc308b67	-0.010775424
225	0x3d214329	0.03937069
226	0x3b3f5544	0.002919511
227	0x3d408bc4	0.04700829
228	0x3de58508	0.11207014
229	0x3de56743	0.11201336
230	0x3df6d652	0.12052597
231	0x3e3c002b	0.18359439
232	0x3e4ab0b0	0.19793963
233	0x3e38da02	0.18051913
234	0x3e92ad62	0.28647906
235	0x3e5171f1	0.20453621
236	0x3e3de9f5	0.18546279
237	0x3e7edbe3	0.24888568
238	0x3e6b75a9	0.22994103
239	0xbd1dfbc5	-0.038570184
240	0xbde6a2d5	-0.112615265
241	0xbd3f0f3e	-0.046645395
242	0xbd0febfa	-0.035137154
243	0xbc11848c	-0.008881699
244	0xbc9a7260	-0.018853366
245	0xbdb11c89	-0.08648021
246	0x3d421dd8	0.047391742
247	0xbdce4db5	-0.10073415
248	0xbdd5b330	-0.10434568
249	0xbd2c9574	-0.042134717
250	0xbc03827c	-0.008026715
251	0x3ccadd40	0.024763703
252	0x3d4e6727	0.050391342
253	0x3c3e5b89	0.011618503
254	0x3c14fda2	0.009093674
255	0x3d3b8af2	0.045786805

fc1.bias f4 [256]
0	0xbd0486d0	-0.03235513
1	0xbb934aeb	-0.004495015
2	0xbc0ad72c	-0.008474153
3	0xbd5aab77	-0.053386178
4	0xbd1975aa	-0.03746573
5	0x3c59dd22	0.013297351
6	0xbc65b7fd	-0.014020917
7	0xbcb06d53	-0.021536505
8	0xbcfbf689	-0.030757206
9	0xbcd9a1c8	-0.026566401
10	0xbbebaba0	-0.00719209
11	0x3ca832cd	0.020532036
12	0x3d009d83	0.031400215
13	0xbd48b1a2	-0.04899753
14	0x3c94138e	0.01807573
15	0xbd18d71e	-0.037314527
16	0x3c5b736c	0.013394218
17	0xbbb2be06	-0.0054547815
18	0x3cbd7d65	0.023131082
19	0xbd1b4166	-0.037904166
20	0xbc8c255f	-0.017107664
21	0xbcce85f3	-0.025210356
22	0xbcf88344	-0.03033603
23	0xbc42a03e	-0.011879025
24	0x3be97979	0.0071250764
25	0xbc84c908	-0.01620914
26	0xbc5cca16	-0.013475915
27	0x3cd809a9	0.026371794
28	0x3aea49fc	0.0017874832
29	0xbb466c39	-0.0030276908
30	0xbcd4217d	-0.025894875
31	0x3ca7654d	0.020434046
32	0x3a07b952	0.0005177456
33	0xbcf187e5	-0.029483745
34	0x3cbd1b3c	0.023084275
35	0xbb976d54	-0.004621187
36	0x3b1aec67	0.0023639442
37	0x3c9f6fe3	0.019462531
38	0x3c4e3881	0.012586714
39	0xbceab682	-0.02865148
40	0xbc6eb4b8	-0.014569454
41	0x3cd003e2	0.025392476
42	0xbd852824	-0.06501797
43	0xbcaa0555	-0.020754496
44	0xbd38f8d3	-0.045159172
45	0x3c6e3f15	0.014541407
46	0xbbd91009	-0.006624226
47	0xbcf33956	-0.029690426
48	0xbcfc853d	-0.030825252
49	0xbd13aa12	-0.036050864
50	0xbcc48f68	-0.023994163
51	0x3c898d1c	0.016790919
52	0x3bdc20ac	0.006717762
53	0x3b870524	0.004120486
54	0x3c5ae639	0.013360553
55	0xbba2a5ed	-0.0049636276
56	0x3c21ed55	0.0098832445
57	0xbc778ccc	-0.015109252
58	0xbd2759eb	-0.040857237
59	0xbc13254c	-0.00898106
60	0x3c97e8cf	0.018543629
61	0x3c502ce3	0.012706014
62	0xbd4b3439	-0.04961035
63	0xbd06c46a	-0.03290216
64	0xbcb9b562	-0.022669498
65	0xbd352b95	-0.044231016
66	0xbbdd4567	-0.006752658
67	0x3caf9680	0.021434069
68	0xbd244f43	-0.040114652
69	0xbc3d34fb	-0.011548276
70	0x3ca1673b	0.019702544
71	0x3ccc25d0	0.024920374
72	0xbce4b8a2	-0.027920071
73	0xbcb91ee4	-0.022597738
74	0x3c8149bc	0.01578223
75	0xbcca1729	-0.024669247
76	0xbd7ffc7f	-0.06249666
77	0x3b77092d	0.0037694678
78	0x3c22f426	0.009945905
79	0xbd13679b	-0.035987478
80	0x3cd10dfa	0.02551936
81	0x3b318605	0.0027087939
82	0xbc39dfa7	-0.011344827
83	0xbcf1328f	-0.029443054
84	0xbd04f25e	-0.0324577
85	0x3c435e49	0.011924335
86	0xbd28c8c0	-0.041207075
87	0x3c8bd64f	0.017069964
88	0xbcd15425	-0.025552819
89	0xbc7a0599	-0.015260124
90	0xbc7f1ef9	-0.015571349
91	0xbcc69f9d	-0.024246031
92	0x3b95c3aa	0.004570444
93	0x3bdd8dd9	0.0067612943
94	0xbd1f862f	-0.038946327
95	0xbd10ce77	-0.03535315
96	0x3bd7e51e	0.006588592
97	0xbd0843f7	-0.03326794
98	0xbd09d658	-0.03365168
99	0x3ca2f87b	0.019893875
100	0xbc24dee8	-0.010062911
101	0xbd2d06f2	-0.04224295
102	0xbb2c4cb2	-0.002629083
103	0xbce3686a	-0.02775975
104	0x3c871c20	0.016492903
105	0x3c8a5fb0	0.01689133
106	0x3c839424	0.01606185
107	0xbd4b7913	-0.049676012
108	0x3cd6932b	0.026193222
109	0x3c7d3a00	0.015455723
110	0xbad90630	-0.001655763
111	0xbd17d297	-0.03706607
112	0xbd3a0822	-0.045417912
113	0xbcc92b5b	-0.024556806
114	0xbd11ab1d	-0.035563577
115	0x3ca35324	0.019937105
116	0xbd32fb2e	-0.043696575
117	0xbccf0ded	-0.025275195
118	0x3b83afce	0.0040187603
119	0xbd5f5d3a	-0.054532267
120	0xbc90964e	-0.017649796
121	0x3cabd5a4	0.020975895
122	0xbd219d20	-0.039456487
123	0xbcf43bdd	-0.029813701
124	0xbc948018	-0.018127486
125	0xbd165a70	-0.03670734
126	0xbcf5fb4e	-0.030027058
127	0x3c37c193	0.011215585
128	0xbc54d27e	-0.012989638
129	0xbd3aa534	-0.045567706
130	0xba9629e8	-0.0011456581
131	0x3ce67458	0.028131649
132	0xbc5d81b4	-0.013519693
133	0xbcdd7ab2	-0.027036045
134	0xbc9d3eef	-0.019195048
135	0x3c8edaa5	0.017438242
136	0xbc342e32	-0.010997342
137	0x3d0146a8	0.031561524
138	0xb99cf55b	-0.00029937443
139	0xbb3387c4	-0.0027394155
140	0xbd302505	-0.043004055
141	0x3c45089a	0.012025977
142	0xbc07b4e6	-0.008282876
143	0xbba1d9dc	-0.004939301
144	0xbc87a0c4	-0.016556151
145	0xbd1ea6d1	-0.038733307
146	0x3c9da733	0.019244766
147	0xbcfc59bf	-0.030804513
148	0xbd44b339	-0.048022483
149	0xbd521c00	-0.051296234
150	0x3c12ebab	0.00896732
151	0xbcb7687f	-0.022388695
152	0xbd1ccbe9	-0.0382804
153	0x3b92ac79	0.0044761267
154	0xbb56ea11	-0.0032793323
155	0xbcb901f1	-0.022583934
156	0x3ce8e064	0.02842731
157	0xbcbbd45f	-0.022928415
158	0x3c23d085	0.009998445
159	0xbd24fdc3	-0.04028107
160	0xbcf28cd8	-0.029608175
161	0xbc5e450e	-0.013566269
162	0xbd0cc88f	-0.034370955
163	0x3d3c63c5	0.045993585
164	0xbcd9c36c	-0.026582442
165	0xbd24ddb2	-0.040250488
166	0x3c1263a3	0.008934888
167	0x3d038ab2	0.032114692
168	0xbbce650f	-0.006298668
169	0xbc2074af	-0.009793445
170	0xbd00e5e1	-0.03146923
171	0x3c72b364	0.014813278
172	0xbcb7b9d6	-0.02242748
173	0x3c8a751f	0.01690155
174	0xbd33355f	-0.04375207
175	0xbd232821	-0.03983319
176	0x3bfdf8be	0.0077505996
177	0xbc709ad9	-0.014685356
178	0xbc9f25a8	-0.019427136
179	0xbb912555	-0.004429499
180	0x3c9f343d	0.019434089
181	0xbce885af	-0.028384058
182	0xbbafbed3	-0.005363324
183	0xbc241850	-0.010015562
184	0xbc3818d7	-0.011236391
185	0xbd294099	-0.04132137
186	0x3c1ce3fc	0.00957584
187	0xbbb2b49e	-0.00545366
188	0xbd29b756	-0.04143461
189	0xbd0ca5dd	-0.034337867
190	0xbd3b07a7	-0.045661595
191	0xbcc056d5	-0.023478905
192	0xbd2901f2	-0.04126162
193	0x3c2a4889	0.01039327
194	0x3cb35197	0.021889491
195	0xbba88ef9	-0.005143997
196	0x3ab9ef87	0.0014185765
197	0xbd2f6789	-0.04282335
198	0xbd25810d	-0.040406276
199	0xbcfdd26c	-0.030984126
200	0xbd0b59e2	-0.034021266
201	0x3c83c38d	0.016084457
202	0xbb8d92f1	-0.0043204953
203	0xbbf52a45	-0.0074818456
204	0x3bad22b0	0.005283676
205	0x3bc5c499	0.006035399
206	0x3c1b07d2	0.009462314
207	0x3bf6cae0	0.007531509
208	0x3ac16d93	0.0014757387
209	0xbd1b7496	-0.037952982
210	0xbd03fdb8	-0.032224387
211	0xbd48cdfe	-0.049024574
212	0xbcacd424	-0.02109725
213	0x3c300a11	0.0107445875
214	0xbb239ebe	-0.0024966444
215	0xbd018375	-0.031619508
216	0xbd0835d5	-0.033254463
217	0x3ccc18d5	0.024914185
218	0x3c98dc3c	0.018659703
219	0x3cbe05b7	0.023196084
220	0xbd2e55c8	-0.042562276
221	0x3cb41b76	0.02198575
222	0xbd16f176	-0.03685137
223	0xbc8f7f50	-0.017516762
224	0xbcbdfb01	-0.023190977
225	0x39066191	0.00012815582
226	0x3ce125a0	0.027483761
227	0xbd06cf57	-0.03291258
228	0xbc14c695	-0.009080549
229	0xbd238652	-0.03992302
230	0x3c60e1a9	0.013725677
231	0x3d19a6b6	0.037512504
232	0xbbc54476	-0.006020124
233	0x3c1bdfea	0.0095138345
234	0x3aea94d4	0.0017897137
235	0x3b6ec9b6	0.0036436147
236	0xbc2237ff	-0.009901046
237	0xbba62055	-0.0050697722
238	0x3c6397aa	0.01389114
239	0xbd227e5f	-0.039671298
240	0xbcae3433	-0.021265125
241	0xbd2758da	-0.04085622
242	0xbc66ede8	-0.014094807
243	0x3c225fc9	0.009910532
244	0x3c296291	0.0103384415
245	0xbd067cd9	-0.032833908
246	0x3b4b506c	0.0031023277
247	0xbd0ec917	-0.034859743
248	0xbbe243d6	-0.0069050593
249	0x3c7d96f6	0.015477886
250	0x3c8766ed	0.016528571
251	0xbd3cdc41	-0.046108488
252	0xbd0ad5e6	-0.033895396
253	0xbbe20569	-0.0068976176
254	0xbc8db7dc	-0.017299585
255	0xbc54ebe5	-0.012995695

fc2.weight f4 [10, 256]
0	0xbe0365f8	-0.12831867
1	0x3d07f7ce	0.03319531
2	0x3d1d8211	0.03845412
3	0xbc8a82a5	-0.016908
4	0x3d7559f7	0.05990025
5	0x3da7782c	0.08177218
6	0xbd8b0a2d	-0.0678905
7	0x3c6454e9	0.01393626
8	0x3cb007ac	0.021488033
9	0xbe90b829	-0.28265503
10	0xbb3e9e8c	-0.00290862
11	0x3d8598f8	0.06523317
12	0x3dc15b17	0.09441202
13	0xba9cf35c	-0.0011974382
14	0xbd0ae3c5	-0.033908624
15	0x3cbdcb39	0.023168193
16	0xbd7d223f	-0.061800238
17	0xbce6d402	-0.028177265
18	0x3e12a75c	0.14321655
19	0x3d073195	0.03300627
20	0xbd798e72	-0.060926862
21	0x3d80ae9c	0.06283304
22	0xbd07db39	-0.03316805
23	0x3d486924	0.048928395
24	0x3d0f760f	0.0350247
25	0x3de517cf	0.11186182
26	0xbc963a2e	-0.01833829
27	0xbe639776	-0.22225747
28	0x3b9804de	0.004639252
29	0x3db2923c	0.08719298
30	0x3d3516b9	0.044211123
31	0x3c0f09b5	0.008730342
32	0xbe4fe934	-0.20303804
33	0xbcede95f	-0.029041944
34	0x3c0126e1	0.007882805
35	0x3e4096af	0.18807481
36	0xbbc84fef	-0.0061130445
37	0xbcdcd09f	-0.026954947
38	0xbd15f36b	-0.036609095
39	0xbe117306	-0.14204034
40	0x3c738ed1	0.014865593
41	0xbe5bafad	-0.21453734
42	0xbdf9c735	-0.12196199
43	0xbe3f84b2	-0.18702963
44	0xbd7bfd21	-0.0615207
45	0x3d1269ed	0.03574555
46	0x3df3308c	0.11874494
47	0xbd2bdfb6	-0.041961394
48	0xbe4821e9	-0.19544186
49	0xbb0e183d	-0.0021681928
50	0x3d1554e2	0.036457904
51	0x3d1c16fb	0.038107853
52	0x3b8b9e3c	0.0042608064
53	0xbcbe6d38	-0.023245439
54	0x3e259f43	0.16174035
55	0x3d4a538b	0.04939608
56	0xbcf8903a	-0.03034221
57	0xbd5ef896	-0.05443629
58	0x3bdaf093	0.0066815107
59	0xbb7d3339	-0.0038635267
60	0xbce06a9b	-0.027394583
61	0x3e70ed27	0.23527966
62	0x3cb6f29f	0.022332488
63	0x3ca7c892	0.020481382
64	0x3d547b0a	0.05187515
65	0xbdd87fe9	-0.10571272
66	0xbd8cbf93	-0.068724774
67	0xbd8a691a	-0.06758328
68	0x3e2a8507	0.16652308
69	0x3e3bd578	0.1834315
70	0x3c93948c	0.018015169
71	0xbd171f17	-0.036894884
72	0xbdeb8516	-0.114999935
73	0xbe6aba35	-0.22922595
74	0xbd354ba9	-0.04426161
75	0xbe321760	-0.1739173
76	0x3c857e29	0.01629551
77	0x3e322628	0.17397368
78	0xbc3a24e1	-0.011361332
79	0x3ced0564	0.028933235
80	0xbe6f4e4c	-0.23369712
81	0xbcf7323b	-0.030175319
82	0x3d5e6947	0.05429962
83	0x3e607137	0.21918188
84	0x3c5ab321	0.013348372
85	0x3cf03f00	0.029326916
86	0x3a6cb719	0.0009029969
87	0xbe83749d	-0.25674906
88	0xbe9190dd	-0.28430834
89	0x3daebe07	0.085323386
90	0x3c4ba30f	0.012429013
91	0xbd48d124	-0.049027577
92	0x3be1959f	0.0068842913
93	0xbe83d2c5	-0.25746742
94	0xbd1c5ffb	-0.03817747
95	0x3e1a4b17	0.15067707
96	0x3d857bda	0.065177634
97	0xbd945178	-0.072421014
98	0x3a975a15	0.0011547232
99	0xbc768213	-0.015045661
100	0xbd8d6984	-0.06904891
101	0xbe176b6c	-0.14787072
102	0xbd3b247f	-0.045689102
103	0xbd1cd6fa	-0.038290955
104	0xbc33d08f	-0.010975017
105	0x3dab3653	0.08359971
106	0xbd0ed084	-0.034866825
107	0x3e040955	0.12894185
108	0xbd5ff4ed	-0.05467694
109	0xbc724545	-0.014787023
110	0x3e349ba3	0.17637496
111	0xbe5b5884	-0.21420485
112	0x3cf4404f	0.029815821
113	0x3d2b698c	0.041848704
114	0xbeb3afa8	-0.35094953
115	0x3d200ebf	0.039076563
116	0x3cca7a6b	0.024716577
117	0x3c0ee639	0.008721882
118	0x3d89875d	0.067152716
119	0x3e328dc5	0.17436893
120	0xbc844422	-0.01614577
121	0x3c579dd6	0.01316019
122	0xbe9e9ce3	-0.3097907
123	0xbf20a029	-0.62744385
124	0xbc213256	-0.009838661
125	0xbca826ad	-0.020526255
126	0x3be2884f	0.006913222
127	0x3d09914b	0.033585828
128	0xbd7d3bb2	-0.061824508
129	0x3ce50a7b	0.027959099
130	0x3be41e13	0.006961593
131	0xbe843863	-0.2582427
132	0x3d98aac0	0.07454443
133	0x3d33737b	0.043811303
134	0x3d1d7df4	0.038450196
135	0x3db40235	0.087894835
136	0x3d9128d1	0.07087863
137	0x3a85f3a9	0.0010219711
138	0x3d516e7f	0.051130768
139	0x3c1dbe4c	0.00962789
140	0x3da209a7	0.07911997
141	0x3c9ca538	0.019121751
142	0xbc93bb62	-0.018033687
143	0x3c2d5af3	0.010580766
144	0x3d0700db	0.0329598
145	0x3cd51569	0.026011186
146	0x3e302dbe	0.1720495
147	0xbe15c0ec	-0.14624375
148	0xbdc90c4e	-0.098168
149	0x3bf71742	0.0075406143
150	0xbdc53025	-0.096283235
151	0x3d5633ce	0.0522955
152	0x3d874272	0.0660447
153	0xbca3b721	-0.019984784
154	0xbd68db00	-0.05684948
155	0x3ddbe764	0.10737494
156	0xbea13f7c	-0.31493747
157	0x3e29b0f0	0.16571403
158	0xbe7aca22	-0.2449117
159	0x3d1aa7d6	0.037757717
160	0xbc8759b1	-0.01652226
161	0x3dc803a4	0.097663194
162	0xbe2cf60b	-0.16890733
163	0xbe12d6f2	-0.14339808
164	0x3d454927	0.048165467
165	0xbd8380a4	-0.064210206
166	0x3c979219	0.018502282
167	0xbd87c605	-0.06629566
168	0x3e005c01	0.12535097
169	0x3dab911e	0.08377288
170	0x3c07950c	0.008275282
171	0xbd459117	-0.04823407
172	0xbdd77d1b	-0.10521909
173	0xbd2e0850	-0.042488396
174	0xbee6e4cd	-0.45096436
175	0x3aa96c91	0.0012926032
176	0x3cbe7851	0.02325073
177	0xbc1c77a4	-0.009550009
178	0x3da35911	0.079759724
179	0x3e015c8d	0.12632962
180	0x3d087750	0.03331691
181	0x3dd7b188	0.10531908
182	0x3d7b1aa7	0.061304715
183	0xbe012731	-0.12612607
184	0xbe362a2f	-0.1778953
185	0x3c16ea7e	0.009211181
186	0xbc63da50	-0.01390703
187	0xbe1ad50c	-0.15120333
188	0xbe085c59	-0.13316478
189	0x3cb7a027	0.022415234
190	0xbe9b3868	-0.30316472
191	0xbd43dc68	-0.047817618
192	0xbe21b54a	-0.15791813
193	0x3c55a05d	0.013038722
194	0x3d240621	0.040044907
195	0xbba7a963	-0.005116628
196	0x3e0f1fec	0.13977021
197	0xbc91c732	-0.017795179
198	0xbd77ba8e	-0.060480647
199	0x3d9d8afc	0.07692525
200	0x3d8c6559	0.06855268
201	0x3d03357e	0.032033436
202	0x3dc7d346	0.09757094
203	0x3e34f605	0.17671974
204	0x3dddf689	0.108380385
205	0x3e08fd34	0.1337784
206	0xbc832b9f	-0.016012011
207	0x3e53f08d	0.20697232
208	0x3cfa313c	0.030541055
209	0x3c294261	0.010330767
210	0x3d59ad13	0.053143572
211	0x3dd81a7b	0.10551926
212	0x3d5acd77	0.053418603
213	0x3d330e00	0.043714523
214	0xbd27c417	-0.04095849
215	0xbb711799	-0.0036787747
216	0x3d39779d	0.045280088
217	0x3c51ed14	0.0128128715
218	0x3cc39c5e	0.023878273
219	0x3d48d28a	0.04902891
220	0xbe176cfa	-0.14787665
221	0x3cda58d6	0.026653688
222	0xbcb91460	-0.022592723
223	0x3e0af3e6	0.13569602
224	0x3d70eb36	0.058818065
225	0xbddde587	-0.108347945
226	0xbd027645	-0.031851072
227	0x3d9b1856	0.07573001
228	0xbcd69225	-0.026192734
229	0xbd955c8e	-0.07293044
230	0xbc817d7b	-0.015806904
231	0x3d65a39d	0.056064237
232	0x3d451d1d	0.048123468
233	0x3bb5101b	0.0055256016
234	0x3de7ef81	0.113249786
235	0x3d71c960	0.059029937
236	0xbd029c4a	-0.03188733
237	0x3c999c31	0.018751236
238	0xbc63821c	-0.013886001
239	0x3c5c7b5b	0.013457145
240	0x3e04fc14	0.12986785
241	0x3d7ba343	0.061434995
242	0xbe827d0d	-0.2548603
243	0xbb5f83a7	-0.003410557
244	0x3d2e4b4e	0.042552285
245	0xbd3c5e1c	-0.045988187
246	0xbe82f457	-0.25577042
247	0x3db56707	0.088575415
248	0xbed840c9	-0.42236927
249	0xbd2e59eb	-0.04256622
250	0xbe36903d	-0.1782846
251	0x3d284a4f	0.04108649
252	0x3bd5aded	0.0065209777
253	0xbed0a13f	-0.4074802
254	0xbd5af15c	-0.053452834
255	0xbec72e45	-0.38902488

fc2.bias f4 [10]
0	0x3d1e4c32	0.038646884
1	0xbe2270a1	-0.15863277
2	0x3d177326	0.03697505
3	0x3cb879ea	0.02251907
4	0x3d624814	0.05524452
5	0xbd1c8565	-0.038213152
6	0xbd027c1b	-0.031856637
7	0xbe20d25f	-0.1570525
8	0x3e4e7e28	0.20165312
9	0x3cb06bab	0.021535715
