results/LeNet/MNIST/baseline_model.pth (torch, 181466 bytes, 10 tensors)

conv1.weight f4 [6, 1, 5, 5]
0	0x3ce786aa	0.028262455
1	0x3d91298a	0.07088001
2	0xbe98c9c6	-0.2984144
3	0xbe09b09d	-0.13446279
4	0x3dac8aea	0.08424933
5	0x3e6588f0	0.22415519
6	0xbd9b6ed4	-0.07589498
7	0xbe8f8144	-0.2802831
8	0xbe47a7a5	-0.19497545
9	0x3d0910c5	0.03346326
10	0x3dee9ebf	0.11651372
11	0x3d856523	0.06513431
12	0xbeffbee9	-0.4995034
13	0xbeb93814	-0.36175597
14	0xbe723b3f	-0.23655413
15	0x3e388075	0.18017752
16	0x3efc840d	0.49319497
17	0x3ec1308d	0.37732354
18	0xbd8fa616	-0.070141
19	0xbe737aa4	-0.23777252
20	0xbca1acc8	-0.019735709
21	0x3ea1a316	0.31569737
22	0x3ec99cdc	0.39377487
23	0x3ef89177	0.4854848
24	0x3d059ede	0.03262221
25	0x3e1279d8	0.14304292
26	0x3dd801fe	0.10547255
27	0xbde74c5c	-0.11293861
28	0xbd3f71b2	-0.046739288
29	0xbd9e179d	-0.077193476
30	0xbdeb6bb0	-0.11495149
31	0x3c8479db	0.016171386
32	0xbe3de196	-0.18543085
33	0xbe385db1	-0.1800449
34	0xbe933174	-0.28748667
35	0xbe29aa95	-0.16568978
36	0xbe448d10	-0.19194436
37	0xbd3a0227	-0.04541221
38	0xbdc95b02	-0.098318115
39	0xbe0553fb	-0.13020317
40	0x3d215b56	0.039393745
41	0xbde081ce	-0.10962258
42	0xbdc3bba0	-0.09557271
43	0xbe2743aa	-0.16334406
44	0xbdd262fd	-0.10272787
45	0xbd400fd1	-0.046890084
46	0x3d8be16f	0.068301074
47	0x3bb6ee38	0.005582597
48	0xbd694b14	-0.056956366
49	0x3dbaac71	0.09114922
50	0xbb844dec	-0.0040376093
51	0x3e7c1f50	0.2462132
52	0x3c4271d1	0.011867956
53	0xbdc3fe2e	-0.09569965
54	0x3e1cda68	0.1531769
55	0xbe0371a2	-0.12836316
56	0x3e6347c5	0.22195347
57	0xbdb96dc1	-0.09054137
58	0xbe210dad	-0.15727873
59	0x3db9e6db	0.09077235
60	0xbd91d089	-0.07119853
61	0x3e04fb6a	0.12986532
62	0xbdb987e0	-0.09059119
63	0x3da14037	0.07873576
64	0x3e9bb92d	0.30414715
65	0xbe648ce4	-0.2231937
66	0xbc425cec	-0.011862975
67	0x3cdf6f4c	0.02727475
68	0x3e81821c	0.25294578
69	0x3ea67000	0.32507324
70	0xbec251e0	-0.3795309
71	0xbe9ea8ad	-0.30988064
72	0xbdc17118	-0.09445399
73	0x3eb56193	0.35426006
74	0x3e2b6078	0.16736019
75	0x3e7dd38f	0.24787734
76	0x3e1c65d9	0.15273227
77	0xbe080657	-0.13283668
78	0xbdbfbce7	-0.09362202
79	0xbe744fec	-0.23858613
80	0xbd4583da	-0.048221447
81	0x3ead6a56	0.3387019
82	0x3d957afd	0.07298849
83	0xbe9eda6f	-0.31026027
84	0xbdc327d6	-0.095290825
85	0x3decd7ac	0.11564574
86	0x3e94b686	0.29045504
87	0xbdf9b729	-0.12193138
88	0xbcdf3aac	-0.027249657
89	0xbe5897b0	-0.21151614
90	0x3e1e8033	0.15478592
91	0x3e6ee36b	0.2332894
92	0x3d0bcec7	0.034132745
93	0xbd362942	-0.04447294
94	0xbe606c3c	-0.21916288
95	0xbc404d67	-0.011737204
96	0x3e49b473	0.19697742
97	0x3cf108a4	0.029423065
98	0xbe1cb2ea	-0.15302625
99	0xbd94ae41	-0.07259799
100	0x3ec06b14	0.37581694
101	0x3e793624	0.2433706
102	0xbd41f357	-0.047351208
103	0xbe33ac67	-0.17546235
104	0xbe6dc0fd	-0.2321815
105	0xbd5091be	-0.05092024
106	0xbec9ee1b	-0.39439473
107	0xbec53f1e	-0.38524717
108	0xbe49e19b	-0.19714968
109	0x3dedddb1	0.1161455
110	0xbeaaa539	-0.3332918
111	0xbe7fd36f	-0.24983
112	0xbe50325f	-0.20331715
113	0x3e40614c	0.18787116
114	0x3e9f5a51	0.31123593
115	0xbe80e9ca	-0.25178367
116	0xbcd2c901	-0.025730612
117	0x3e46da9e	0.19419333
118	0x3e7d3368	0.24726641
119	0x3d072f35	0.033004005
120	0x3e48c15a	0.19605008
121	0x3e89efa5	0.26940647
122	0x3e258851	0.16165282
123	0x3e721117	0.23639332
124	0xbe465199	-0.19367065
125	0xbdf7e07f	-0.12103366
126	0xbd770590	-0.06030804
127	0xbe2f465a	-0.1711668
128	0xbe72c12c	-0.23706502
129	0xbe76096d	-0.24027033
130	0xbd97633e	-0.07391976
131	0xbe2095ce	-0.15682146
132	0xbec310d2	-0.3809877
133	0xbde9ddca	-0.11419256
134	0x3e7672f3	0.24067287
135	0x3e1daa5e	0.15397021
136	0xbd979bc7	-0.07402759
137	0x3d3a730e	0.04551988
138	0x3ecde03b	0.40210137
139	0x3ecc6d18	0.39926982
140	0x3ebc5ed6	0.36791104
141	0x3eb2b14f	0.349009
142	0x3edeef0a	0.43541747
143	0x3e1c3798	0.15255582
144	0xbdf351c5	-0.11880831
145	0xbe813382	-0.2523461
146	0x3dd832b4	0.10556546
147	0xbdbdff38	-0.09277195
148	0xbe6b17cb	-0.22958295
149	0xbe4105f0	-0.18849921

conv1.bias f4 [6]
0	0x3be2de1d	0.0069234506
1	0xbed6f9cb	-0.41987452
2	0x3c840f2f	0.016120521
3	0x3d27ead0	0.04099542
4	0xbe38e762	-0.18057016
5	0xbdc88c33	-0.09792366

conv2.weight f4 [16, 6, 5, 5]
0	0x3e3522c3	0.17689042
1	0xbec263cf	-0.37966773
2	0xbe01f917	-0.12692676
3	0x3d72ccf9	0.05927751
4	0x3d035bba	0.0320699
5	0x3e219f1d	0.15783353
6	0x3caa1683	0.020762688
7	0xbe94ad03	-0.29038247
8	0x3d409ed6	0.047026478
9	0x3dc925c7	0.098216586
10	0xbba59b22	-0.0050538937
11	0x3e057e29	0.13036408
12	0xbe4c47b1	-0.19949223
13	0x3c9eca0b	0.019383451
14	0x3e24328f	0.16034912
15	0x3dd466b2	0.1037115
16	0x3e2749b5	0.16336711
17	0xbbb0a414	-0.0053906534
18	0x3d834d5f	0.06411242
19	0x3e4ada98	0.1980995
20	0x3d0fdd71	0.035123292
21	0xbdc37b43	-0.09544995
22	0xbc91a15d	-0.01777714
23	0x3c2e2aad	0.010630292
24	0xbd300f99	-0.042983625
25	0x3dbef0a5	0.09323243
26	0x3e26f2dd	0.16303582
27	0x3df582b7	0.119878225
28	0x3e5c7090	0.21527314
29	0x3d7b812d	0.06140249
30	0x3d913064	0.07089308
31	0x3d9dbcd7	0.07702034
32	0x3bf2aa15	0.0074055293
33	0x3d4e40d2	0.050354786
34	0x3ce58289	0.028016346
35	0x3db372e6	0.087621495
36	0xbc054de4	-0.008136246
37	0xbd3f7164	-0.046738997
38	0xbe57428a	-0.21021476
39	0xbe3dd604	-0.18538672
40	0xbd880cf5	-0.06643096
41	0x3cb66861	0.022266569
42	0xbe2406f8	-0.16018283
43	0xbe2bfa93	-0.16794805
44	0xbe340c86	-0.17582902
45	0x3d230177	0.03979632
46	0xbdee1d51	-0.116266854
47	0xbdf478c2	-0.11937095
48	0xbe19345a	-0.14961377
49	0xbc405d92	-0.011741059
50	0xbbc3fccd	-0.005981064
51	0x3db1c7cd	0.08680687
52	0x3e144c86	0.14482316
53	0x3d3a2a2f	0.045450386
54	0x3ddc9dd3	0.1077229
55	0x3bc5dc75	0.0060382434
56	0xbd011e84	-0.031523243
57	0x3da9ba23	0.08287456
58	0x3d9eea10	0.07759488
59	0x3cb40758	0.021976158
60	0xbe12f638	-0.14351737
61	0x3d160ebf	0.036635157
62	0x3e1304c6	0.1435729
63	0x3dc0c5ff	0.09412765
64	0x3de45a3e	0.11150025
65	0x3c9c104c	0.01905074
66	0x3dc53ebf	0.096311085
67	0xbc350e49	-0.011050769
68	0x3d5dbc03	0.05413438
69	0x3e280d98	0.16411436
70	0xbce1d2ec	-0.027566396
71	0x3cb6222a	0.022233088
72	0x3b9edf9f	0.004848435
73	0x3a3f6b0e	0.0007302024
74	0xbe0ba112	-0.13635662
75	0x3e1005b6	0.14064679
76	0x3d4ea98a	0.050454654
77	0x3da33ce2	0.07970597
78	0x3df35c11	0.11882795
79	0xbdedaa3b	-0.116047345
80	0x3e5b69b4	0.21427041
81	0x3e1643b7	0.14674269
82	0xbc923a3c	-0.017850034
83	0x3e4d57d8	0.20053041
84	0x3d779a09	0.060449634
85	0x3e601ebe	0.21886727
86	0x3e1aba06	0.15110025
87	0x3ce63efd	0.028106207
88	0x3df63c81	0.12023259
89	0xbc2e6cfa	-0.010646099
90	0x3e2fe9f6	0.17179093
91	0xbceb6f2d	-0.028739536
92	0xbd04a5a9	-0.03238455
93	0xbb1c6709	-0.0023865125
94	0xbd65842d	-0.056034256
95	0x3d35ad18	0.04435453
96	0x3c6cdeae	0.014457388
97	0xbd7aeda3	-0.061261784
98	0xbd255efe	-0.040373795
99	0xbba8cf96	-0.0051516993
100	0xbcebb488	-0.028772607
101	0x3c02c3ab	0.007981221
102	0xbdae71a6	-0.085177705
103	0x3d7ebf36	0.06219407
104	0x3d50dd78	0.05099246
105	0x3cd554fa	0.026041497
106	0xbe30cea0	-0.17266321
107	0x3e1022e1	0.14075805
108	0x3db3e553	0.087839745
109	0xbdb64394	-0.08899608
110	0xbe04c35d	-0.1296515
111	0xbd899ecd	-0.06719742
112	0xbbccfa6d	-0.006255439
113	0xbe9fb72b	-0.31194434
114	0xbdd32136	-0.10309069
115	0xbe004dca	-0.12529674
116	0xbda8fad7	-0.08250969
117	0xbe358971	-0.17728211
118	0xbe933eb4	-0.28758776
119	0xbe6b5269	-0.22980656
120	0x3d9db3e8	0.0770033
121	0xbd964f58	-0.07339352
122	0xbe2de17a	-0.16980544
123	0xbc06fbe3	-0.008238765
124	0xbdb351aa	-0.087558106
125	0xbdd0a2c3	-0.10187294
126	0xbe888843	-0.2666646
127	0xbe82eb30	-0.2557006
128	0x3e2dc51d	0.16969724
129	0x3e8b6cf5	0.27231565
130	0xbe03b541	-0.12862112
131	0xbe716bf2	-0.23576334
132	0xbe490c22	-0.19633535
133	0x3d216f42	0.039412744
134	0xbd4610ce	-0.04835587
135	0xbd05af5f	-0.03263795
136	0xbdeae564	-0.11469534
137	0xbe0c920e	-0.1372759
138	0xbdb483e4	-0.08814219
139	0xbd7aae52	-0.0612014
140	0x3d1782aa	0.036989845
141	0xbe0fa0d7	-0.140262
142	0xbde66d27	-0.11251288
143	0xbe10fdbd	-0.14159293
144	0x3d874141	0.06604243
145	0x3e1efa9c	0.15525287
146	0xbb8f97b2	-0.004382097
147	0xbdcdb8e4	-0.10045031
148	0x3dc2e04a	0.09515436
149	0xbcc1bfcd	-0.023651028
150	0xbe619540	-0.2202959
151	0xbe403fc5	-0.18774326
152	0xbd92de7f	-0.07171344
153	0xbe1cb20d	-0.15302296
154	0xbe87639a	-0.26443177
155	0xbdd75b8c	-0.10515508
156	0xbd99c626	-0.07508497
157	0xbdc15723	-0.09440448
158	0x3bf7e790	0.007565446
159	0xbe12f546	-0.14351377
160	0xbde875f9	-0.113506265
161	0xbdbcde36	-0.09222071
162	0x3dae3a5b	0.08507224
163	0x3dc7953a	0.097452596
164	0x3c9df2b5	0.01928077
165	0xbd68392a	-0.05669514
166	0xbda2d266	-0.079502866
167	0x3dea1a44	0.11430791
168	0x3e9faab6	0.3118493
169	0x3e415343	0.18879418
170	0x3e1bb2fe	0.15204999
171	0x3db3f2fa	0.087865785
172	0x3df01b66	0.11723976
173	0x3dba5905	0.090990104
174	0x3d74c7bd	0.059760798
175	0xbdc84736	-0.097792074
176	0x3ddb34b2	0.1070341
177	0x3d396cb8	0.045269698
178	0xbd0f3b53	-0.034968685
179	0x3d10bb4a	0.035334863
180	0x3dde1611	0.108440526
181	0x3e19d593	0.15022878
182	0x3dc20f92	0.09475626
183	0x3de80e5b	0.11330863
184	0x38a8c3e9	8.0473554e-05
185	0x3cca104d	0.024665976
186	0x3de521ea	0.11188109
187	0x3d227d75	0.039670426
188	0x3c6fd334	0.014637757
189	0x3dc01379	0.09378714
190	0x3d942745	0.072340526
191	0x3ce60e69	0.028083043
192	0xbde65766	-0.11247139
193	0x3d31a524	0.04337038
194	0x3ca8120f	0.020516424
195	0x3cb72d64	0.022360511
196	0xbce02373	-0.027360654
197	0xbdc50363	-0.096197866
198	0xbd832f7b	-0.064055406
199	0x3d2e4876	0.042549573
200	0xbe7f9a95	-0.24961312
201	0xbe788dcc	-0.24272841
202	0xbe24ffc0	-0.16113186
203	0xbe02ba8a	-0.12766472
204	0xbd85229f	-0.06500744
205	0xbeaf031b	-0.34182057
206	0xbda44003	-0.08020022
207	0x3c9d0927	0.019169403
208	0xbe12ef9d	-0.14349218
209	0xbc8c44d5	-0.017122665
210	0xbd571549	-0.052510533
211	0xbd44babc	-0.048029646
212	0x3d760e08	0.060071975
213	0xbe86dde1	-0.26341155
214	0xbea53a5b	-0.32271084
215	0x3da01ef3	0.07818403
216	0xbb1c7fc3	-0.0023879863
217	0x3d5ec405	0.054386158
218	0xbe549e1c	-0.20763439
219	0xbe7b22f4	-0.24525052
220	0x3e5ec4e5	0.21754797
221	0x3dcaed8b	0.09908589
222	0x3ccbc796	0.024875443
223	0xbd42a161	-0.047517184
224	0x3df0dc2e	0.11760746
225	0x38889182	6.512088e-05
226	0xbbe6afb7	-0.00703999
227	0x3cb5ee7a	0.022208441
228	0x39e6db1e	0.00044032274
229	0xbc997f97	-0.018737597
230	0x3d0a74f5	0.033802945
231	0xbda6423b	-0.08118101
232	0xbe347dcb	-0.17626111
233	0x3c2e36ac	0.010633152
234	0xbdb3b644	-0.08774999
235	0xbd15a4a5	-0.03653397
236	0xbe468d1e	-0.1938977
237	0xbdd53899	-0.10411186
238	0xbc674eb4	-0.014117885
239	0x3bcadebe	0.0061911037
240	0x3d2419dd	0.040063728
241	0xbd457182	-0.048203953
242	0x3b5c6683	0.0033630438
243	0x3e4e9ba7	0.20176564
244	0x3dbc991e	0.09208892
245	0xbaca5a5f	-0.001543831
246	0xbddfc3df	-0.10926031
247	0x3dd305c5	0.10303835
248	0x3e562af9	0.2091483
249	0x3c9c9156	0.01911227
250	0xbd88c2da	-0.0667779
251	0xbb7d3f07	-0.0038642304
252	0xbd473df5	-0.04864307
253	0xbd8db6b1	-0.06919611
254	0xbd1f64a5	-0.03891434
255	0xbd421898	-0.047386736

conv2.bias f4 [16]
0	0xbd690428	-0.05688873
1	0xbd0a4f0b	-0.033766787
2	0x3c4d6ecf	0.012538626
3	0xbd146663	-0.036230456
4	0xbd801445	-0.06253866
5	0xbd3030ff	-0.043015476
6	0x3d8c6ebd	0.06857059
7	0xbcdf66a7	-0.027270628
8	0xbc74fdaf	-0.014953061
9	0x3d01065a	0.031500198
10	0xbd54d993	-0.051965307
11	0x3bc4a781	0.0060014133
12	0x3d9babdf	0.07601141
13	0xbda439e8	-0.08018857
14	0xb980bdf3	-0.00024555586
15	0x3d1291ac	0.035783455

fc1.weight f4 [120, 256]
0	0xbd2eaa44	-0.042642847
1	0xbd964429	-0.07337219
2	0xbacf908d	-0.0015835926
3	0x3de1685f	0.11006235
4	0xbe0b16fd	-0.13582988
5	0xbda6fa8a	-0.08153255
6	0x3e1996a1	0.14998867
7	0x3d234283	0.039858352
8	0xbe22e2eb	-0.15906875
9	0x3d3baa2b	0.04581658
10	0x3dc30ef9	0.0952434
11	0xbcd6c8fc	-0.026218884
12	0xbdc7441f	-0.0972979
13	0x3c77a86b	0.015115838
14	0x3dbfe51f	0.09369873
15	0xbc1bd16c	-0.009510379
16	0x3e13e939	0.14444436
17	0x3e0fd7fa	0.14047232
18	0xba77fa75	-0.0009459623
19	0x3cd1d768	0.025615409
20	0xbe105b88	-0.14097416
21	0x3d906f13	0.07052436
22	0x3cbaec99	0.022817897
23	0x3d1ce06e	0.03829997
24	0xbc4eec46	-0.012629574
25	0xbdf6eaf6	-0.12056534
26	0x3d5ee6c5	0.054419298
27	0x3c3931a9	0.011303344
28	0xbba3b928	-0.0049964376
29	0x3c8a050f	0.016848115
30	0xbdf76f2b	-0.120817505
31	0xbd3ad7d1	-0.045615975
32	0x3d0cb3a5	0.03435101
33	0x3d3fe8a1	0.04685271
34	0xbda663d9	-0.08124513
35	0x3daa6d72	0.08321656
36	0x3e268b95	0.16264184
37	0x3d225e80	0.039640903
38	0xbda8bd36	-0.08239214
39	0x3dbba048	0.091614306
40	0xbe2eb9a9	-0.17063011
41	0xbc67ab45	-0.014139955
42	0xbd8ad1fd	-0.06778333
43	0xbda5f992	-0.081042424
44	0xbd4e477d	-0.050361145
45	0xbe540d0a	-0.20708099
46	0xbccf09f4	-0.0252733
47	0x3d554cf6	0.05207535
48	0x3cbe1759	0.023204492
49	0xbdb21153	-0.086947106
50	0xbc52b356	-0.01286014
51	0xbdbe598f	-0.09294426
52	0xbe0a9a69	-0.13535465
53	0xbde68566	-0.112559125
54	0x3d476ae9	0.04868594
55	0xbc63f317	-0.013912938
56	0xbe60d0bf	-0.2195463
57	0xbe3964a8	-0.18104804
58	0xbd260dcd	-0.040540505
59	0x3e35e4f0	0.17763114
60	0xbe0e343c	-0.13887113
61	0xbdb344e2	-0.08753373
62	0x3c57852e	0.013154311
63	0xbdb27589	-0.08713824
64	0x3ca24744	0.019809373
65	0xbc8803c5	-0.01660336
66	0xbca5e6dd	-0.020251686
67	0xbdd3d015	-0.10342423
68	0xbd4f2013	-0.050567698
69	0xb9853bf3	-0.00025412402
70	0x3d24661c	0.04013644
71	0xbd1ec013	-0.038757395
72	0xbdc05a39	-0.093922086
73	0x3b31f568	0.002715433
74	0xbe23e344	-0.16004664
75	0x3c966bba	0.018361915
76	0x3dd1674a	0.10224779
77	0xbe174ada	-0.14774647
78	0xbe269cd6	-0.16270766
79	0xbc41b81f	-0.011823683
80	0x3e7cbc9a	0.24681321
81	0xbe08701b	-0.13324015
82	0xbd14b252	-0.036302872
83	0x3cb7ebaf	0.02245125
84	0xbe6947a9	-0.22781242
85	0xbe4ae3f4	-0.1981352
86	0x3d45dd9a	0.04830704
87	0x3d139c59	0.036037777
88	0xbeb01851	-0.34393552
89	0x3d101a2b	0.035181206
90	0x3e7395d0	0.23787618
91	0x3d5249fa	0.05134008
92	0xbe6549ff	-0.22391509
93	0xbc357130	-0.011074349
94	0x3db21bc0	0.08696699
95	0x3dc77242	0.0973859
96	0x3e98238f	0.2971463
97	0x3d6e2639	0.05814192
98	0xbd093df5	-0.033506352
99	0xbe01d251	-0.12677886
100	0x3e24e944	0.16104609
101	0x3e4858d4	0.19565135
102	0xbde03088	-0.109467566
103	0xbdd8d0b1	-0.1058668
104	0x3b7878eb	0.003791387
105	0xbc61a94d	-0.013773275
106	0x3d8225d1	0.06354869
107	0x3df32dfd	0.11874006
108	0xbd72a287	-0.05923703
109	0xbdb6e9f5	-0.089313425
110	0xbe6e91b8	-0.23297775
111	0x3e09345d	0.13398881
112	0xbdc238e3	-0.094835065
113	0xbcf4e88d	-0.029896045
114	0xbd6407ff	-0.05567169
115	0x3e366a27	0.17813931
116	0xbda1ec5a	-0.079064086
117	0xbcfa7773	-0.030574536
118	0x3db59d08	0.08867842
119	0xbcace29a	-0.021104146
120	0xbe1d6109	-0.15369047
121	0xbe1b622f	-0.15174173
122	0x3d99cfcd	0.07510338
123	0xbd8323f7	-0.06403344
124	0xbceb97ba	-0.028758872
125	0xbe55152b	-0.20808856
126	0xbe37d448	-0.17952073
127	0xbda09f94	-0.07842937
128	0x3e4f16f7	0.20223604
129	0x3b6ba826	0.0035958379
130	0x3b70cf61	0.0036744701
131	0xbe5957f2	-0.21224955
132	0x3e2405ff	0.16017912
133	0xbd7a7749	-0.061148915
134	0xbdc98750	-0.09840262
135	0xbd90de3c	-0.07073638
136	0x3d4458b9	0.047936175
137	0x3d7ccdb5	0.061719615
138	0xbd367f6f	-0.044555124
139	0xbdb3442b	-0.087532364
140	0xbe286df9	-0.16448201
141	0xbd8cbeed	-0.06872354
142	0xbdb745a9	-0.089488335
143	0xbe17bc3d	-0.14817901
144	0x3d9de615	0.077099
145	0x3dc1404b	0.09436091
146	0x3e5541b7	0.2082585
147	0xbda3c8ee	-0.07997309
148	0x3c6aa152	0.014320688
149	0x3e237bb8	0.15965164
150	0x3bb24407	0.0054402384
151	0x3e0180e3	0.12646823
152	0x3e5bafd3	0.2145379
153	0x3e28b581	0.16475488
154	0xbde8681f	-0.113479845
155	0xbde66d40	-0.112513065
156	0xbdcb6c69	-0.09932787
157	0x3e14adf9	0.1451949
158	0x3d668704	0.056281105
159	0x3b80e65f	0.0039337124
160	0x3e3f7015	0.186951
161	0x3d76baa5	0.06023659
162	0xbc3652a7	-0.011128104
163	0x3c081d7e	0.008307813
164	0x3c8d4984	0.017246969
165	0xbd74db5e	-0.059779517
166	0x3df7685e	0.12080453
167	0xbb19d2eb	-0.0023471664
168	0x3e3d92fd	0.18513103
169	0x3c1ad9d9	0.009451353
170	0x3e06420d	0.13111134
171	0x3d8a7bce	0.06761895
172	0x3c698b9b	0.014254476
173	0xbb550574	-0.003250447
174	0xbd6b513e	-0.057450525
175	0xbdca17da	-0.098678306
176	0x3e6f9507	0.23396693
177	0x3e191486	0.14949235
178	0xbe0e8f76	-0.13921914
179	0xbd314392	-0.04327733
180	0x3de69253	0.11258378
181	0xbe158194	-0.14600211
182	0xbd872212	-0.06598295
183	0xbc879a63	-0.01655311
184	0xbd985179	-0.07437415
185	0xbde05f43	-0.1095567
186	0xbdc6614a	-0.09686525
187	0xbc6582d5	-0.014008244
188	0xbdc159e7	-0.09440976
189	0xbe446015	-0.19177277
190	0xbdb36a8c	-0.087605566
191	0xbddeb1e8	-0.10873777
192	0xbe090ff6	-0.13384995
193	0x3d723786	0.059134983
194	0x3db7520f	0.08951198
195	0x3dc1b394	0.0945808
196	0xbddbbe68	-0.107296765
197	0x3e8fce66	0.28087157
198	0xbe172263	-0.14759211
199	0x3da52c15	0.080650486
200	0x3d99629f	0.074895136
201	0x3e1c8f54	0.1528905
202	0xbdaee50b	-0.0853978
203	0x3dd0dfba	0.101989225
204	0x3d7b6efc	0.06138514
205	0x3ca290db	0.019844463
206	0x3dbb259e	0.09138034
207	0x3de0f2a6	0.109837815
208	0xbd019a0d	-0.031641055
209	0x3c789b9b	0.015173818
210	0xbd3865e8	-0.04501906
211	0xbdc9e0e4	-0.098573476
212	0x3e63460f	0.22194694
213	0x3db3ef59	0.08785886
214	0x3d813366	0.063086316
215	0x3d4987de	0.04920184
216	0xbe05cd71	-0.13066651
217	0x3e47ce3e	0.19512269
218	0x3e0789bf	0.1323614
219	0xbd6e6c73	-0.058208894
220	0xbcd9fa6f	-0.026608674
221	0x3aeaf5bb	0.0017926017
222	0xbb81b24f	-0.0039580236
223	0x3ca93d6f	0.020659177
224	0x3e428f8c	0.19000071
225	0x3e052cd7	0.13005386
226	0x3dbf60be	0.09344624
227	0x3dc1e7c6	0.094680354
228	0xbe005e2d	-0.12535925
229	0xbbec5f52	-0.0072135115
230	0x3d1ab5a8	0.037770897
231	0xbc9df13f	-0.019280074
232	0xbda5517c	-0.080721825
233	0x3dacea0c	0.084430784
234	0xbaced2e4	-0.0015779403
235	0x3d1dd459	0.03853259
236	0xbe4354ac	-0.19075269
237	0xbda4f7e0	-0.08055091
238	0xbda2c929	-0.079485245
239	0xbe89046e	-0.26761192
240	0xbd920778	-0.07130331
241	0x3d4b72b7	0.049669947
242	0x3e0487a6	0.12942371
243	0x3e354623	0.17702536
244	0xbd44c346	-0.04803779
245	0xbe0473dd	-0.12934823
246	0x3e4c6f07	0.19964229
247	0x3df0e41e	0.1176226
248	0x3c0e7301	0.008694411
249	0xbe145dca	-0.14488903
250	0x3d7e8ac6	0.062144063
251	0xbd1eaa90	-0.03873688
252	0xbcd036e5	-0.0254168
253	0x3d654246	0.055971406
254	0x3b97a7b4	0.004628146
255	0x3c98a3bd	0.018632764

fc1.bias f4 [120]
0	0x3d7964dd	0.060887206
1	0xbddbbc92	-0.10729326
2	0xbce067a6	-0.027393173
3	0x3c63fdbf	0.013915478
4	0x3dc93e2b	0.09826311
5	0x3d965eb8	0.07342285
6	0x3d905c0b	0.07048806
7	0xbd239d65	-0.039945025
8	0x3dc06a3d	0.09395263
9	0x3d2524a3	0.040318143
10	0x3c97fb91	0.018552573
11	0x3d697d9b	0.057004552
12	0xbd0faa43	-0.035074484
13	0xba9f9d04	-0.0012177532
14	0xbc88967f	-0.016673325
15	0x3d3334e7	0.043751623
16	0xbc686ed8	-0.014186583
17	0xbca91262	-0.020638648
18	0xbd8c3ec1	-0.06847907
19	0x3d63883c	0.055549845
20	0x3d713cc1	0.05889583
21	0xbd64973a	-0.055808283
22	0xbd50f0c3	-0.05101086
23	0xbdc635a5	-0.09678201
24	0x3e0790cc	0.1323883
25	0xbd8c3d62	-0.06847645
26	0xbc4313b9	-0.011906558
27	0xbca37b80	-0.01995635
28	0xbc18dfb0	-0.009330675
29	0xbd21935c	-0.039447173
30	0xbd664eab	-0.056227367
31	0xbd241196	-0.040055834
32	0xbc3d6c66	-0.011561489
33	0xbb83baf4	-0.0040200893
34	0xbcaa813a	-0.020813573
35	0xbd883ac1	-0.066518314
36	0xbac9e44a	-0.0015403118
37	0xbd1ceb90	-0.038310587
38	0x3d8c81bf	0.068606846
39	0x3dc900b1	0.09814585
40	0xbd405499	-0.04695568
41	0x3c0e2e94	0.008678097
42	0xbd720151	-0.059083287
43	0x3dc27a51	0.09495986
44	0x3d319abc	0.043360457
45	0x3e01c6c0	0.12673473
46	0xbdac111b	-0.084017
47	0x3cb39aec	0.021924458
48	0x3dcc2383	0.09967711
49	0x3d177681	0.03697825
50	0xbcbabd35	-0.022795299
51	0xbc5d464a	-0.013505528
52	0xbd1779eb	-0.036981504
53	0xbddd4f4a	-0.10806139
54	0x3d609a06	0.05483439
55	0x3d4220bc	0.0473945
56	0x3d1c3a72	0.038141675
57	0x3d8bc2f8	0.06824297
58	0x3e180a1f	0.14847611
59	0xbd63757e	-0.05553197
60	0x3d2b0dfa	0.041761376
61	0x3d50a591	0.050939146
62	0xbc9ee621	-0.019396843
63	0x3dde2c01	0.10848237
64	0xbd8cbdf9	-0.06872172
65	0x3c33e89c	0.010980751
66	0x3d81285b	0.06306525
67	0x3c8ea0d8	0.01741068
68	0xbceae7bd	-0.028674955
69	0x3cdc6dd5	0.02690784
70	0xbd9bad2a	-0.07601388
71	0xbcf415fa	-0.029795635
72	0x3b21fbd0	0.0024716742
73	0x3d59c035	0.05316182
74	0xbc561d41	-0.013068498
75	0xbd8b7ba3	-0.06810691
76	0xbd09c7ba	-0.03363774
77	0xbc5aea61	-0.013361544
78	0xbcfef687	-0.031123413
79	0x3ce722ad	0.028214777
80	0xbdaafa4c	-0.083485216
81	0x3ad92c1a	0.001656893
82	0xbdaf843b	-0.08570143
83	0x3d9b3951	0.075792916
84	0xbb6a31c5	-0.0035735231
85	0x3bc5b834	0.0060339216
86	0xbcbf0951	-0.023319872
87	0x3c8f2d17	0.017477555
88	0xbc5d43d2	-0.013504939
89	0xbd55bb4a	-0.052180566
90	0xbc2fd615	-0.0107321935
91	0xbdb59812	-0.08866896
92	0x3ce55166	0.027992915
93	0xbd6d2652	-0.057897873
94	0x3da61150	0.08108771
95	0xbd468c8e	-0.048473887
96	0xbcfcb8f2	-0.030849908
97	0xbb89d493	-0.004206249
98	0xbca91aa2	-0.020642582
99	0x3d9c0e29	0.07619888
100	0x3d0d546f	0.03450435
101	0xbc527f40	-0.012847722
102	0x3cb666a6	0.022265743
103	0xbd6e4237	-0.058168616
104	0xbd742f22	-0.05961526
105	0x3e0310e9	0.1279942
106	0xbcef528b	-0.029214164
107	0xbd8b93c9	-0.06815297
108	0xbd92210a	-0.07135208
109	0xbc601c46	-0.013678616
110	0xbd44537e	-0.047931187
111	0x3d9c7fae	0.076415405
112	0x3d8a818a	0.06762989
113	0x3d5fb825	0.054618973
114	0x3ccec0bf	0.025238393
115	0xbd399e19	-0.04531679
116	0x3c4e9838	0.012609534
117	0xbcdf93a3	-0.027292078
118	0xbc847a11	-0.016171487
119	0x3d04dad8	0.03243527

fc2.weight f4 [84, 120]
0	0xbc83863b	-0.016055217
1	0x3d790106	0.06079199
2	0x3c36b5a5	0.011151706
3	0x3d9b610d	0.0758687
4	0xbdb8017a	-0.08984657
5	0xbd8f5853	-0.069992684
6	0x3cba6f7f	0.022758244
7	0xbd77ee2f	-0.060529884
8	0xbda81b1f	-0.08208298
9	0xbcbecad1	-0.02329007
10	0xbdd3681b	-0.10322591
11	0xbd946dda	-0.07247515
12	0xbcb328b9	-0.021870004
13	0x3d324d6e	0.043530874
14	0x3cf1ce56	0.029517334
15	0xbda01d13	-0.078180455
16	0x3d0275b2	0.031850524
17	0xbc9780ba	-0.018493999
18	0xbcbcc2b9	-0.02304207
19	0x3d28386a	0.041069426
20	0x3ba79939	0.005114701
21	0xbd9ca62b	-0.076488815
22	0x3bc11a33	0.005893016
23	0xbd317cbc	-0.043331847
24	0x3d21a3eb	0.039462965
25	0x3d3ceac0	0.046122313
26	0xbdf32fa6	-0.118743226
27	0xbd9814f2	-0.0742587
28	0x3d712cb6	0.05888053
29	0x3d5ec352	0.05438549
30	0xbd88f2b3	-0.06686916
31	0xbce74ab5	-0.028233865
32	0xbdaa5fa3	-0.083190225
33	0xbd3137a9	-0.043265972
34	0x3cfba6b8	0.030719146
35	0xbd605e30	-0.054777324
36	0xbca32bfc	-0.019918434
37	0xbdc879c6	-0.097888514
38	0x3d4bc853	0.04975159
39	0x3c9c072d	0.01904639
40	0xbd1506ac	-0.036383316
41	0xbc9a32e2	-0.018823091
42	0x3af41062	0.0018620605
43	0xbcf1e0f0	-0.029526204
44	0xbc9ab01f	-0.01888281
45	0xbc0c3432	-0.008557366
46	0xbe035ef1	-0.12829186
47	0x3d1b8648	0.037969857
48	0x3d222ab0	0.03959149
49	0xbdc5513b	-0.09634634
50	0xbd15c30e	-0.03656297
51	0x3ce83a72	0.028348181
52	0x3df4e799	0.11958236
53	0x3c852fa5	0.01625807
54	0x3c8f14a6	0.0174659
55	0xbda25b6b	-0.07927593
56	0x3cceb5f9	0.025233256
57	0x3cf032ae	0.029321041
58	0x3cf961e9	0.030442195
59	0xbd69c05e	-0.05706822
60	0xbcaa907a	-0.020820845
61	0x3d508cbd	0.05091547
62	0xbcd2ce61	-0.025733175
63	0xbd9e2c5b	-0.07723304
64	0x3cbc9e2e	0.023024645
65	0x3beeb221	0.007284418
66	0xbde51834	-0.11186257
67	0xbc83e798	-0.016101643
68	0xbba94486	-0.0051656393
69	0x3d68a45d	0.056797374
70	0x3c806c88	0.015676752
71	0xbe076398	-0.13221586
72	0x3d9407cb	0.07228049
73	0xbe19f268	-0.15033877
74	0x3c3a2a8a	0.011362681
75	0xbce4679e	-0.02788144
76	0xbda3fd80	-0.08007336
77	0xbdab07a4	-0.08351067
78	0x3d1564c0	0.036473036
79	0x3db1f073	0.0868844
80	0xbdd5fc1a	-0.10448475
81	0xbd343b35	-0.044001777
82	0xbd99a893	-0.07502856
83	0xbdc3496e	-0.0953549
84	0xbdfa111f	-0.12210297
85	0x3cdea6c7	0.027179135
86	0xbb92e00f	-0.0044822763
87	0xbd93d6e4	-0.072187215
88	0x3d06f5c9	0.032949243
89	0xbdb20a79	-0.08693404
90	0x3d80b885	0.06285194
91	0xbd029f68	-0.031890303
92	0xbdbbee65	-0.091763295
93	0xbcb04164	-0.021515556
94	0xbcccb317	-0.02498774
95	0xbde60e5c	-0.112332076
96	0xbc96897e	-0.018376108
97	0xbd3375df	-0.043813583
98	0xbdbf18e6	-0.09330921
99	0xbdba36d7	-0.09092491
100	0x3d07a37c	0.033114895
101	0x3d270699	0.040777776
102	0xbe1c6bd8	-0.15275514
103	0xbc80c350	-0.015718132
104	0xbe1e6d9e	-0.15471503
105	0xbd5129a0	-0.051065087
106	0x3ac2774e	0.0014836581
107	0x3d07b8d5	0.033135254
108	0xbcde66ae	-0.02714857
109	0xbd2e8bd8	-0.042613834
110	0x3dd53d1f	0.104120485
111	0x3cb292fe	0.021798607
112	0xbdc09489	-0.09403331
113	0xbd884450	-0.066536546
114	0xbcf1468f	-0.02945259
115	0xbe26da69	-0.16294254
116	0xbc4f7c24	-0.012663875
117	0xbd6ff3c2	-0.058582075
118	0xbd2748e6	-0.040841006
119	0x3d95d11a	0.073152736
120	0x3c7746e7	0.015092588
121	0xbb9365b8	-0.00449821
122	0x3c9280d8	0.017883703
123	0xbc430b64	-0.011904571
124	0xbb917e5c	-0.004440112
125	0xbd80a001	-0.06280518
126	0xbdc9846f	-0.09839713
127	0xbb903756	-0.004401128
128	0xbdd27603	-0.10276415
129	0xbd8ce955	-0.06880442
130	0xbd1f1048	-0.038833886
131	0xbc1c1305	-0.009526019
132	0xbd8ef958	-0.06981152
133	0xbe2b4209	-0.16724409
134	0xbcf21d85	-0.029555092
135	0x3c1a173e	0.009404955
136	0xbdafa6fa	-0.0857677
137	0x3ccdcf57	0.025123281
138	0xbd9341c1	-0.07190276
139	0xbe06e2fb	-0.13172524
140	0x3d37f44b	0.04491071
141	0xbd91f7bd	-0.071273305
142	0xbe00ea68	-0.12589419
143	0xbddaafe5	-0.106780805
144	0x3d29c13f	0.04144406
145	0x3d3950ab	0.045242947
146	0xbdcdb02f	-0.1004337
147	0xbcad02a0	-0.021119416
148	0xbd80cb54	-0.06288782
149	0xbd029de1	-0.031888846
150	0x3cb4f5d4	0.022089876
151	0xbd8c5996	-0.06853025
152	0xbc456f5d	-0.012050477
153	0x3dabcbe9	0.08388502
154	0x3d9b4c46	0.075829074
155	0x3c9fa4f5	0.019487837
156	0xb921ef0e	-0.00015443211
157	0xbd884c9c	-0.06655237
158	0x3c7cfa57	0.015440545
159	0xbc14a139	-0.009071642
160	0xbdc80fb4	-0.0976862
161	0x3bb346e6	0.0054710982
162	0x3d0f349f	0.034962293
163	0xbd548837	-0.051887717
164	0xbd66f9f2	-0.05639071
165	0xbdab96f8	-0.083784044
166	0x3c6b16d7	0.014348707
167	0x3d9753ee	0.07389055
168	0xbd684b07	-0.056712177
169	0x3d9e3d39	0.07726521
170	0xbdb9ed47	-0.0907846
171	0xbe0ed03f	-0.13946627
172	0x3cadf529	0.021235066
173	0xbd6cb52e	-0.057789974
174	0xbd1b2706	-0.037879013
175	0xbd211cd3	-0.03933413
176	0xbe000374	-0.12501317
177	0x3d83ee7d	0.064419724
178	0xbc90ca5b	-0.017674616
179	0x3aecc5f0	0.0018064361
180	0x3d5a983b	0.053367835
181	0x3c406c46	0.011744564
182	0x3d6ab824	0.057304516
183	0xbdd250b3	-0.102692984
184	0xbd3fdc44	-0.04684092
185	0xbdbaefcc	-0.09127769
186	0xbdb5bec4	-0.08874276
187	0xbb306e27	-0.0026921125
188	0xbd862156	-0.06549327
189	0xbd82d6fa	-0.0638866
190	0x3cd260f4	0.025680996
191	0xbe0e02ff	-0.1386833
192	0x3d15c445	0.03656413
193	0xbc9aa5a3	-0.01887781
194	0xbd9bfb8c	-0.07616338
195	0xbd55e23a	-0.0522177
196	0x3da75dc5	0.08172182
197	0xbcc0d5fb	-0.023539534
198	0x3d88b71b	0.066755496
199	0xbbb8ef7e	-0.005643784
200	0xbd79c826	-0.060981892
201	0xbda29496	-0.07938497
202	0x3d11809c	0.035523042
203	0x3cbc74bc	0.023004882
204	0xbd964d85	-0.073390044
205	0x38804e7c	6.1181345e-05
206	0x3c8dbc8b	0.017301818
207	0x3cbb4914	0.022861995
208	0xbd87a4fb	-0.066232644
209	0x3d691fe8	0.056915194
210	0x3d3d71de	0.04625117
211	0xbded67e6	-0.11592083
212	0x3cf485d5	0.029848972
213	0xbdde6c8e	-0.10860549
214	0x3d0ef8b8	0.034905165
215	0x3da69239	0.081333585
216	0xbc18f129	-0.009334841
217	0xbd9d9c0e	-0.07695781
218	0x3c1cc66e	0.009568794
219	0xbe1c6b2b	-0.15275256
220	0xbba7da14	-0.0051224325
221	0x3cc28c5e	0.023748573
222	0xbc1f5347	-0.009724445
223	0xbdad0a70	-0.084492564
224	0x3cd89c78	0.026441798
225	0xbd8121b7	-0.06305259
226	0xbdd7d6d9	-0.10539026
227	0x3d8e5e3d	0.06951568
228	0x3b804be9	0.003915299
229	0xbdb683cf	-0.08911859
230	0xbca8b100	-0.020592213
231	0xbddeab89	-0.108725615
232	0xbd8a3b2d	-0.06749568
233	0xbdc1f223	-0.09470012
234	0x3cad77bf	0.021175263
235	0xbe183df2	-0.1486738
236	0xbdc2ac70	-0.09505546
237	0x3b68887d	0.0035481744
238	0xbe2b20a5	-0.16711672
239	0xbcf816eb	-0.030284366
240	0x3e172c34	0.14762956
241	0x3d820e21	0.06350351
242	0x3b1f2aef	0.0024287065
243	0xbd163aed	-0.03667729
244	0xbd30d4cb	-0.043171685
245	0xbd9ae946	-0.075640246
246	0x3b28c9f2	0.0025755134
247	0xbe816581	-0.25272754
248	0xbd58ad62	-0.052899726
249	0xbcb37e34	-0.021910764
250	0xbd305de4	-0.04305829
251	0x3db34e60	0.08755183
252	0x3db00cb1	0.08596171
253	0xbd7006b3	-0.05860014
254	0xbb330545	-0.0027316373
255	0x3e4be9f9	0.19913472

fc2.bias f4 [84]
0	0xbdb67f6a	-0.08911021
1	0xbe166d1d	-0.14690061
2	0x3e236188	0.15955174
3	0x3d9bca72	0.07606973
4	0x3d2e739f	0.042590734
5	0xbd40acc9	-0.04703978
6	0xbcb5cb85	-0.022191772
7	0x3e116bfb	0.14201348
8	0x3d973a7b	0.07384201
9	0xbd26554a	-0.04060868
10	0xbdb0bcce	-0.08629762
11	0xbca5a5e2	-0.0202207
12	0xbc68fb9a	-0.014220143
13	0x3bdb1572	0.006685906
14	0xbdb01789	-0.08598239
15	0xbc7a1b5f	-0.015265315
16	0xbd183818	-0.03716287
17	0x3e4a76f3	0.19771938
18	0x3d366245	0.04452731
19	0x3d4a1780	0.049338818
20	0xbd162896	-0.0366598
21	0x3d3fded3	0.04684336
22	0x3bc3e15d	0.005977793
23	0x3d02c567	0.03192654
24	0x3d0580ab	0.03259341
25	0x3bd9d6c3	0.006647916
26	0xbd17f568	-0.037099272
27	0xbcfc9006	-0.030830394
28	0xbd159163	-0.036515605
29	0xbd94acb9	-0.07259507
30	0xbd8ff8b2	-0.07029857
31	0x3d4c082b	0.049812477
32	0x3d57baa2	0.05266822
33	0xbbf8302f	-0.0075741033
34	0xbd420109	-0.04736427
35	0xbd593178	-0.053025693
36	0x3c698efd	0.0142552825
37	0x3d887f43	0.06664898
38	0xbe0d5a0d	-0.13803883
39	0x3e35ff90	0.1777327
40	0xbcec4dcf	-0.028845696
41	0x3e33e195	0.17566521
42	0x3e1eeb27	0.15519391
43	0xbdad4fec	-0.084625095
44	0x3e115ab2	0.14194754
45	0x3e149178	0.14508617
46	0xbd2b41a4	-0.041810647
47	0xbc5febb7	-0.013667039
48	0x3d12a68d	0.035803366
49	0xbde71f6d	-0.11285291
50	0x3cec9cac	0.0288833
51	0xbcb7e018	-0.022445723
52	0xbc0445cf	-0.008073284
53	0x3c4ef23a	0.0126309935
54	0xbdc6fa67	-0.09715729
55	0xbd86ed4b	-0.06588229
56	0xbcf0192c	-0.029308878
57	0xbccb27ee	-0.024799313
58	0x3c67b9c6	0.014143413
59	0x3b225384	0.0024769017
60	0xbe120c93	-0.14262609
61	0x3c077eba	0.00826996
62	0xbd34b198	-0.04411468
63	0x3dc29132	0.0950035
64	0xbd853c91	-0.06505693
65	0x3d67aadf	0.05655944
66	0x3d11e4bb	0.035618525
67	0xbdcfdb54	-0.101492554
68	0x3d3091b1	0.043107692
69	0x3e06a9b0	0.13150668
70	0x3df88102	0.12133981
71	0x3bdf638a	0.006817286
72	0xbd90abee	-0.07064043
73	0x3b8e8bef	0.0043501775
74	0x3daa9a1f	0.083301775
75	0xbdbe562d	-0.092937805
76	0xbd8b5922	-0.0680411
77	0x3e1768e8	0.14786112
78	0x3dd8db6e	0.10588728
79	0xbc07db84	-0.008292083
80	0xbd91d02a	-0.07119782
81	0x3e0d4fab	0.13799922
82	0xbd837b9b	-0.0642006
83	0x3d0fd1ed	0.03511231

fc3.weight f4 [10, 84]
0	0x3bbf8b0b	0.0058454326
1	0xbdcff1cf	-0.10153543
2	0xbe9d52c7	-0.30727217
3	0x3d1ad608	0.037801772
4	0x3bff2629	0.0077865315
5	0x3d1b31db	0.037889343
6	0xbe41a4ab	-0.18910472
7	0xbc9b00dd	-0.01892131
8	0xbcc338d0	-0.023830801
9	0xbbb456b9	-0.005503502
10	0x3db46ba2	0.08809592
11	0x3dda5bcb	0.10662039
12	0xbe4f98fc	-0.20273203
13	0x3cab9f62	0.020950023
14	0xbdd6b0aa	-0.10482915
15	0xbe28a813	-0.16470365
16	0xbe621a56	-0.22080359
17	0xbd861c8b	-0.06548413
18	0xbe3150ac	-0.1731593
19	0x3e486c14	0.19572479
20	0x3e990c71	0.29892305
21	0xbe503e58	-0.20336282
22	0x3d8abe14	0.06774536
23	0x3ded42aa	0.11584981
24	0xbde8d290	-0.113682866
25	0x3d0901e7	0.03344908
26	0xbdb29fe9	-0.08721907
27	0x3da36ec8	0.07980114
28	0xbe95a93e	-0.29230684
29	0x3dc75ac0	0.09734106
30	0x3df4e1f1	0.119571574
31	0x3da814b0	0.08207071
32	0x3e241b5f	0.16026066
33	0xbeb0fba9	-0.34567
34	0xbdfddbb6	-0.12395422
35	0xbdb74eac	-0.08950552
36	0x3db6eb54	0.08931604
37	0x3da9584b	0.08268794
38	0xbd60b431	-0.054859344
39	0xbe17e3cb	-0.1483299
40	0xbdd1364c	-0.102154344
41	0xbcae8735	-0.021304706
42	0x3df7e13d	0.12103508
43	0xbd6698a7	-0.056297924
44	0xbe885bb0	-0.26632452
45	0x3de9682f	0.113968246
46	0x3dab07a1	0.083510645
47	0xbe03be1c	-0.1286549
48	0xbba10497	-0.004913877
49	0x3db81cdf	0.08989882
50	0xbe3a49d6	-0.18192229
51	0x3ddbccae	0.10732399
52	0xbe86288a	-0.26202804
53	0xbe6f1f40	-0.23351765
54	0xbdbb77b7	-0.09153693
55	0x3e2cfee8	0.16894114
56	0x3c9399f0	0.018017739
57	0xbe877293	-0.264546
58	0xbe4ccadb	-0.19999258
59	0xbe15be8b	-0.14623468
60	0xbe8f31f1	-0.2796779
61	0x3d33035c	0.043704376
62	0xbe600454	-0.21876651
63	0x3e264a42	0.16239265
64	0xbdbff5b1	-0.09373034
65	0x3d9e4297	0.07727545
66	0xbe41f534	-0.18941194
67	0xbd9ce03c	-0.07659957
68	0xbb55570f	-0.0032553112
69	0x3e004442	0.12526038
70	0x3e1cbe20	0.15306902
71	0xbd913bf6	-0.07091515
72	0x3dcb3e4c	0.099239916
73	0x3cb686dc	0.022281103
74	0xbe4b906c	-0.19879311
75	0xbd3e7202	-0.046495445
76	0xbde306d8	-0.1108529
77	0xbc7d427b	-0.015457745
78	0x3adccfc4	0.0016846587
79	0xbda1f41a	-0.07907887
80	0x3dd2b2b5	0.10287992
81	0xbd2481c7	-0.040162828
82	0x3e048e9b	0.12945025
83	0x3de19bac	0.1101602
84	0xbb971179	-0.004610237
85	0xbd5f76a3	-0.0545565
86	0xbb412cea	-0.0029476234
87	0xbe827bf6	-0.254852
88	0x3e3ed892	0.18637303
89	0xbda9a168	-0.08282739
90	0x3dbca8c1	0.09211875
91	0xbd9939db	-0.07481738
92	0xbe83182d	-0.25604382
93	0xbdf9a881	-0.12190343
94	0xbd711485	-0.05885746
95	0x3d99926e	0.07498632
96	0xbb5a4934	-0.0033307793
97	0xbdd48f6a	-0.103789166
98	0xbcd393ea	-0.025827367
99	0x3e5a8053	0.21338014
100	0xbc88ac59	-0.016683744
101	0x3ddc2f51	0.107512124
102	0xbe2ff0a5	-0.17181642
103	0x3d054473	0.03253598
104	0xbd2d2c46	-0.04227855
105	0x3dc7ad02	0.097497955
106	0xbd143047	-0.036178853
107	0xbc258d56	-0.010104498
108	0x3d9a475f	0.07533144
109	0xbd86e22a	-0.06586106
110	0xbe0862a3	-0.13318877
111	0xbdf27104	-0.11837962
112	0x3cd61ff5	0.026138285
113	0x3c9ec3ef	0.019380538
114	0xbdab00af	-0.0834974
115	0xbde3b999	-0.11119384
116	0xbe86dabe	-0.26338762
117	0x3d994f3f	0.07485818
118	0xbe4c656c	-0.19960564
119	0xbddb6216	-0.10712068
120	0xbdd97ce9	-0.10619528
121	0x3e0915e3	0.13387255
122	0xbc1331d4	-0.008984048
123	0xbdc45456	-0.09586398
124	0xbdf66904	-0.12031749
125	0xbdf86aa1	-0.12129713
126	0xbe26d97a	-0.16293898
127	0x3ce8c3ad	0.028413618
128	0x3df5b18c	0.11996755
129	0xbd067201	-0.032823566
130	0x3d22c346	0.03973701
131	0x3d9a7663	0.07542112
132	0x3c3af0f9	0.011409991
133	0xbd93896a	-0.07203944
134	0x3e1b8ec9	0.15191187
135	0xbe5f0ec6	-0.2178298
136	0x3dba60de	0.09100507
137	0xbe1620fd	-0.14661022
138	0xbda1081c	-0.07862875
139	0xbe538191	-0.20654894
140	0x3e37ee90	0.17962098
141	0x3ab191c9	0.0013547476
142	0x3d2a1a83	0.04152919
143	0xbe945460	-0.28970623
144	0xbe17c080	-0.14819527
145	0x3ba9a754	0.005177418
146	0xbe4c5594	-0.1995452
147	0xbe80039d	-0.25002757
148	0xbd0168a3	-0.03159393
149	0xbe599ed6	-0.21251997
150	0x3e19a1bd	0.15003105
151	0x3dcd9f6d	0.10040174
152	0xbcba1231	-0.022713752
153	0x3e1db809	0.15402235
154	0x3df54c08	0.119773924
155	0x3d67a574	0.056554273
156	0x3d5609c7	0.05225542
157	0x3cb1b99a	0.021694947
158	0xba004577	-0.00048931636
159	0xbd538c52	-0.05164749
160	0xbe0c0d90	-0.13677049
161	0x3d53e31d	0.051730264
162	0xbe0ae158	-0.13562524
163	0xbd3e6793	-0.046485495
164	0x3e27a492	0.16371372
165	0xbe40a904	-0.18814474
166	0xbdd32cb5	-0.103112616
167	0xbe60c016	-0.21948275
168	0x3cfd520f	0.030922918
169	0x3d102673	0.035192918
170	0xbe9a2ad6	-0.30110806
171	0x3e23a103	0.1597939
172	0x3e17d105	0.14825828
173	0x3c84aa6a	0.016194541
174	0x3e52a6fc	0.20571512
175	0xbe3904da	-0.18068257
176	0x3dcb0137	0.09912341
177	0xbe5fad97	-0.21843563
178	0x3bfeda68	0.007777501
179	0xbb702259	-0.0036641567
180	0x3d47d358	0.048785537
181	0xbd2eb8e4	-0.042656794
182	0xbd8cc490	-0.06873429
183	0xbdc1f402	-0.09470369
184	0xbe0dbd97	-0.13841854
185	0xbde07dbc	-0.10961482
186	0xbe411ee7	-0.18859445
187	0x3c2f6f56	0.010707697
188	0x3d8f3d64	0.06994131
189	0xbe6c30c0	-0.23065472
190	0x3c5259f1	0.0128388265
191	0xbe6fa531	-0.2340286
192	0xbe307f10	-0.1723597
193	0x3dda2e65	0.1065338
194	0x3d4593b1	0.048236553
195	0xbe8787ac	-0.26470697
196	0xbc64acde	-0.01395723
197	0x3cc0a7b7	0.023517473
198	0xbce22d02	-0.027609352
199	0xbe8bfa39	-0.27339342
200	0xbc5ce7de	-0.013483016
201	0xbe26a0cb	-0.16272275
202	0xbe5c1b1c	-0.21494716
203	0x3e22d3ee	0.15901157
204	0xbde97807	-0.113998465
205	0xbdb386d1	-0.087659486
206	0x3d835cf4	0.06414214
207	0xbd699b6c	-0.057032987
208	0xbd8031fa	-0.06259532
209	0x3e1e49fc	0.1545791
210	0xbd915d19	-0.07097835
211	0x3d71057d	0.058843125
212	0x3e0e219d	0.1388001
213	0x3da11301	0.07864953
214	0x3d616f73	0.055037927
215	0x3c79beca	0.015243242
216	0x3d9cca7f	0.076558106
217	0x3d0bceee	0.03413289
218	0xbe34ef02	-0.17669299
219	0xbe467026	-0.19378719
220	0xbd0c2ce0	-0.034222484
221	0x3e09813d	0.13428207
222	0xbdd936d4	-0.10606161
223	0x3bb66dfa	0.0055673094
224	0xbde95288	-0.11392695
225	0x3e33b76e	0.17550442
226	0x3e6f744a	0.23384205
227	0x3d6ab5ac	0.057302162
228	0xbe348ee8	-0.1763264
229	0xbd894e02	-0.06704332
230	0xbe25c42e	-0.16188118
231	0x3ca0b06d	0.019615376
232	0xbdee1f61	-0.11627079
233	0xbe79e11e	-0.24402282
234	0x3c701e5c	0.014655676
235	0xbcf4c197	-0.029877467
236	0xbdb3e110	-0.08783162
237	0x3e116b97	0.14201199
238	0xbd4b5aff	-0.049647328
239	0x3dbbc4f5	0.09168426
240	0xbdae2dbb	-0.08504816
241	0xbd67a2fa	-0.05655191
242	0xbd4ff132	-0.05076713
243	0xbc428931	-0.011873529
244	0xbd334144	-0.043763414
245	0xbd6630de	-0.056198947
246	0x3e4fdb1b	0.20298426
247	0xbe493b8d	-0.19651623
248	0x3ded0a5d	0.11574242
249	0x3db27c2f	0.087150924
250	0xbd22fd21	-0.039792184
251	0x3bde7c0a	0.006789689
252	0xbe158d02	-0.14604571
253	0x3d29fee6	0.041502856
254	0x3e0531ff	0.13007353
255	0xbd8fc842	-0.07020618

fc3.bias f4 [10]
0	0xbc82b13d	-0.015953654
1	0x3c4b1092	0.012394087
2	0x3da76d91	0.08175195
3	0xbbab2d83	-0.0052239313
4	0x3cd02f87	0.025413288
5	0xbc46e843	-0.012140336
6	0xbde908ba	-0.113786176
7	0x3d18e665	0.037329096
8	0x3d83093f	0.06398248
9	0x3c89e6f1	0.016833754
